gmpnn_model_recovered.pt (torch, 266816 bytes, 20 tensors)

drug_i_projection f4 [64, 64]
0	0x80001b70	-9.843e-42
1	0xbd7825ac	-0.0605828
2	0xbda8a56c	-0.08234677
3	0xbd9a58b8	-0.07536453
4	0xbd6292da	-0.05531583
5	0xbd76be48	-0.06024006
6	0xbd959f32	-0.07305755
7	0xbd75a142	-0.05996824
8	0xbc6948d4	-0.014238555
9	0xbdb5b511	-0.08872426
10	0x3e460e26	0.19341335
11	0xbb78fee9	-0.0037993735
12	0xbdd0ee89	-0.10201747
13	0x00001b5a	9.812e-42
14	0xbde738e6	-0.112901494
15	0x3d5a4121	0.053284768
16	0xbd2e6be3	-0.042583358
17	0x00001b99	9.9e-42
18	0x3d800a91	0.062520154
19	0xbbf044bd	-0.007332413
20	0xbd5ed2aa	-0.054400124
21	0x80001b97	-9.897e-42
22	0x3c99a1b7	0.01875387
23	0xbb7f177a	-0.0038923905
24	0xbd144f36	-0.036208354
25	0x3de6ee36	0.11275904
26	0x00001b64	9.826e-42
27	0x3b7376d2	0.003714968
28	0x80001bab	-9.925e-42
29	0x3d686f72	0.056746908
30	0x00001b97	9.897e-42
31	0x80001bc4	-9.96e-42
32	0xbdfa4d06	-0.12221722
33	0x00001b8d	9.883e-42
34	0x80001b75	-9.85e-42
35	0x3de4571d	0.11149428
36	0xbd4270be	-0.0474708
37	0x3dc95567	0.09830742
38	0xbca69b96	-0.020337861
39	0xbdb65f0e	-0.08904849
40	0xbd0d7d4c	-0.03454332
41	0xbc801098	-0.015632913
42	0x3c77cf2f	0.01512508
43	0x3caf918c	0.021431707
44	0x80001b8f	-9.886e-42
45	0x00001b8e	9.885e-42
46	0x00001ba9	9.923e-42
47	0xbd7a06eb	-0.061041754
48	0x80001b77	-9.853e-42
49	0xbc3139cc	-0.0108170025
50	0x3d83f27b	0.06442734
51	0xbcd8329d	-0.026391322
52	0x00001d5c	1.0532e-41
53	0x00001b9c	9.904e-42
54	0x3e30095e	0.17191073
55	0x80001b85	-9.872e-42
56	0x00001b63	9.825e-42
57	0xbe6b7f78	-0.22997844
58	0x3d5cfb91	0.05395085
59	0x3e56b24a	0.2096645
60	0x3e7b66fd	0.24551006
61	0x3d7f4d97	0.062329855
62	0xbd23a91d	-0.0399562
63	0x3dc54813	0.09632888
64	0x00001b60	9.82e-42
65	0xbd999fbc	-0.0750117
66	0xbd3d3520	-0.046193242
67	0xbc89b908	-0.016811863
68	0x3e0be002	0.13659671
69	0xbce879e0	-0.028378427
70	0xbd201d89	-0.039090667
71	0x3d2b8cbd	0.041882265
72	0xbc8fd466	-0.017557334
73	0xbdd581e2	-0.10425164
74	0x3e084880	0.13308907
75	0xbd874771	-0.06605423
76	0xbc83369f	-0.016017256
77	0x80001b7e	-9.862e-42
78	0xbcac9dad	-0.02107128
79	0xbcb07b0c	-0.021543048
80	0x3e0c3738	0.1369294
81	0x80001b6d	-9.839e-42
82	0xbc5db313	-0.013531464
83	0x3bde4bff	0.006783962
84	0xbe9748f7	-0.29547855
85	0x00001bab	9.925e-42
86	0xbda1f4bb	-0.07908007
87	0xbd7c7755	-0.06163724
88	0xbdb3a39d	-0.08771441
89	0x3d05ffcb	0.032714646
90	0x00001b76	9.851e-42
91	0x3d76bcdf	0.060238715
92	0x80001b6a	-9.834e-42
93	0xbca727f2	-0.02040479
94	0x00001b6f	9.841e-42
95	0x00001bda	9.991e-42
96	0xbd3e4504	-0.046452537
97	0x80001bb4	-9.938e-42
98	0x80001b6b	-9.836e-42
99	0x3d474eb1	0.04865903
100	0x3d49a12d	0.049225975
101	0x3df82087	0.12115579
102	0x396ddecf	0.00022685084
103	0xbd0c5e4f	-0.034269627
104	0xbdd96b2c	-0.106161445
105	0x3d075521	0.03304017
106	0x3dba38d0	0.090928674
107	0x3c8390e4	0.0160603
108	0x80001b7e	-9.862e-42
109	0x80001b97	-9.897e-42
110	0x00001b6b	9.836e-42
111	0x3d87d812	0.06633009
112	0x00001b92	9.89e-42
113	0xbd97d687	-0.07413965
114	0x3bae05ea	0.0053107636
115	0x3ca5fa24	0.020260878
116	0x80001ba5	-9.917e-42
117	0x00001bd0	9.977e-42
118	0xbdd51270	-0.10403907
119	0x00001bbb	9.948e-42
120	0x00001b6c	9.837e-42
121	0xbdbe6e7f	-0.09298419
122	0x3d45748e	0.04820686
123	0xbb421d0e	-0.0029619369
124	0xbdfa9652	-0.122357026
125	0x3dd3fbda	0.10350771
126	0x3dfa6056	0.12225406
127	0x3dd7ac51	0.105309136
128	0x00001b99	9.9e-42
129	0x3d622c58	0.05521807
130	0x3d67a5cd	0.056554604
131	0x3d753b40	0.05987096
132	0xbccbe2b3	-0.024888372
133	0x3d32cfa8	0.043655068
134	0xbc8d2f51	-0.017234476
135	0xbe0baaf8	-0.13639438
136	0xbd42a70e	-0.047522597
137	0xbe6f4f41	-0.23370077
138	0x3d1b2f94	0.03788717
139	0x3e66528d	0.22492428
140	0xbc6f732f	-0.014614864
141	0x80001b81	-9.867e-42
142	0xbe124d00	-0.14287186
143	0x3b8ce69a	0.004299951
144	0x3d0e3279	0.034716103
145	0x00001b8f	9.886e-42
146	0x3d95cce8	0.073144734
147	0xbe266829	-0.16250671
148	0x3d0dde31	0.034635726
149	0x80001bac	-9.927e-42
150	0xbc91c142	-0.017792348
151	0xbc2e63d9	-0.010643923
152	0xbcbc0f74	-0.022956587
153	0x3d7f04af	0.062260326
154	0x00001b70	9.843e-42
155	0xbe3a1185	-0.18170746
156	0x00001b92	9.89e-42
157	0xbcd6095c	-0.02612751
158	0x00001b60	9.82e-42
159	0x80001b5c	-9.815e-42
160	0x3cd5dd62	0.02610654
161	0x0000220d	1.2215e-41
162	0x80001b7b	-9.858e-42
163	0x3e54b243	0.20771126
164	0x3cc5f474	0.024164416
165	0xbd234737	-0.039862838
166	0x3d123951	0.035699192
167	0x3d004a87	0.031321075
168	0xbdbc5004	-0.09194949
169	0x3dda2b43	0.10652783
170	0x3e20449e	0.15651175
171	0x3d880e1b	0.066433154
172	0x80001bcb	-9.97e-42
173	0x00001b9a	9.902e-42
174	0x80001343	-6.91e-42
175	0x3e2bcee6	0.16778144
176	0x00001b8c	9.882e-42
177	0x3e1ed94d	0.15512581
178	0xbd6dfde0	-0.058103442
179	0xbd55f9e3	-0.052240264
180	0x00001b8b	9.88e-42
181	0x80001b83	-9.87e-42
182	0x3df95216	0.1217386
183	0x00001bb1	9.934e-42
184	0x00001b86	9.874e-42
185	0x3d8449b6	0.06459372
186	0x3ddf289e	0.10896419
187	0x3d9d2b1f	0.0767424
188	0xbc9e55d9	-0.019328045
189	0xbcaccf5f	-0.021094976
190	0xbd316386	-0.043307804
191	0x3d8ffd94	0.07030788
192	0x80001b9b	-9.903e-42
193	0x3d56f58c	0.052480265
194	0xbd775e46	-0.06039264
195	0xbd94c4f1	-0.07264126
196	0x3d753560	0.059865355
197	0x3e35093b	0.17679302
198	0xbd197329	-0.03746334
199	0x3c6d0b82	0.014468076
200	0x3da1af3e	0.07894753
201	0x3e3f2470	0.18666244
202	0x3b6404ba	0.0034792856
203	0x3d7de74a	0.061988153
204	0xbe1945d8	-0.1496805
205	0x00001b71	9.844e-42
206	0x3cef70ce	0.029228594
207	0x3caad782	0.020854715
208	0x3d4fce1b	0.050733667
209	0x80001b90	-9.888e-42
210	0x3e36a454	0.17836124
211	0xbd684b4c	-0.056712434
212	0xbc8376ad	-0.0160478
213	0x80001b66	-9.829e-42
214	0xbd182059	-0.037140224
215	0x3d8789ec	0.066181034
216	0xbd091e6a	-0.03347627
217	0xbc9dcb68	-0.01926203
218	0x00001b6d	9.839e-42
219	0xbd695ad6	-0.056971394
220	0x00001b5f	9.819e-42
221	0x3d5e3171	0.05424637
222	0x80001b71	-9.844e-42
223	0x00001ba0	9.91e-42
224	0xbcc62a36	-0.02419005
225	0x80001b73	-9.847e-42
226	0x80001b62	-9.823e-42
227	0x3c9a316b	0.018822392
228	0x3db25065	0.0870674
229	0xbd9319f7	-0.07182687
230	0x3d310df8	0.043226212
231	0xbd8ac270	-0.06775367
232	0x3d58410f	0.05279642
233	0xbd15d800	-0.036582947
234	0xbbcce4e0	-0.00625287
235	0x3d1dc9f3	0.038522672
236	0x80001b6e	-9.84e-42
237	0x80001b5a	-9.812e-42
238	0x00001b61	9.822e-42
239	0xbd81ff92	-0.06347574
240	0x00001b78	9.854e-42
241	0x3d0303c6	0.03198602
242	0xbe76976c	-0.240812
243	0xbece1a4c	-0.40254438
244	0x80001b58	-9.809e-42
245	0x80001b6d	-9.839e-42
246	0xbbea1f61	-0.007144854
247	0x80001ba0	-9.91e-42
248	0x00001b86	9.874e-42
249	0xbd0ad9a7	-0.033898976
250	0x3e1ccbe4	0.15312153
251	0x3d37c851	0.04486877
252	0xbc79fdd0	-0.0152582675
253	0xbd013c5c	-0.031551704
254	0x3e791bc2	0.24326995
255	0x3e6e410e	0.23267004

drug_j_projection f4 [64, 64]
0	0x00001bae	9.93e-42
1	0x3c5b7695	0.013394971
2	0x3c84bbb7	0.01620279
3	0x3d241302	0.04005719
4	0x3db55a46	0.08855109
5	0xbd5172f4	-0.05113502
6	0x3d8d8626	0.069103524
7	0xbe13e86d	-0.14444132
8	0xbb2b6b6a	-0.0026156553
9	0xbce6020e	-0.028077152
10	0xbce1c75d	-0.027560884
11	0x3b8a7c06	0.0042262105
12	0xbdee9565	-0.116495885
13	0x80001b69	-9.833e-42
14	0xbd273bb7	-0.040828433
15	0x3d5ba8e6	0.05362787
16	0x3dc4ab5d	0.096029975
17	0x00001b62	9.823e-42
18	0xbe2020c5	-0.156375
19	0xbd8e1aae	-0.069386825
20	0xbdbdd699	-0.09269447
21	0x80001b88	-9.876e-42
22	0x3d897462	0.067116514
23	0x3c3bedb1	0.011470244
24	0xbdb98362	-0.090582624
25	0xbe134f9a	-0.14385834
26	0x00001b93	9.892e-42
27	0xbdc8268e	-0.09772979
28	0x00001b7a	9.857e-42
29	0xbcba18ed	-0.022716964
30	0x00001b5e	9.817e-42
31	0x00001b79	9.855e-42
32	0xbe40ff91	-0.18847491
33	0x00001ba8	9.921e-42
34	0x00001b94	9.893e-42
35	0x3daf0fc7	0.08547931
36	0x3d75f187	0.06004479
37	0xbc8fb534	-0.01754246
38	0x3d95d40c	0.07315835
39	0x3dd011f9	0.10159678
40	0x3d9e2b9a	0.0772316
41	0xbe4c39ab	-0.19943874
42	0xbda0b8b0	-0.07847726
43	0xbcc13a89	-0.023587482
44	0x00001b6c	9.837e-42
45	0x80001b8e	-9.885e-42
46	0x80001b83	-9.87e-42
47	0xbdfe3efd	-0.12414358
48	0x80001b5a	-9.812e-42
49	0x3d9a277c	0.07527062
50	0x3d361813	0.044456553
51	0x3dca1eaa	0.0986913
52	0x80001b8b	-9.88e-42
53	0x80001b76	-9.851e-42
54	0x3e0cfa18	0.13767278
55	0x00001b99	9.9e-42
56	0x80001b65	-9.827e-42
57	0x3e4c7334	0.19965822
58	0xbda52d19	-0.08065242
59	0x3c447a0d	0.01199199
60	0x3e5b9500	0.21443558
61	0xbe3859e0	-0.18003035
62	0xbc9392bd	-0.018014306
63	0x3cd23b6d	0.025663102
64	0x80001b5e	-9.817e-42
65	0xbd97c5b9	-0.074107595
66	0x3dbca859	0.09211797
67	0x3d73f0a0	0.05955565
68	0x3d7eef22	0.062239774
69	0xbd45998e	-0.048242144
70	0x3c56f544	0.013119999
71	0x3d8e993e	0.069628224
72	0x3d7baa77	0.061441865
73	0xbd0c8c33	-0.034313392
74	0xbd1e47a4	-0.03864254
75	0x3d34284a	0.043983735
76	0xbd0f3a53	-0.03496773
77	0x80001b6c	-9.837e-42
78	0xbd9d6968	-0.0768612
79	0x3d649fb4	0.055816367
80	0x3b6bf5f8	0.0036004763
81	0x80001bc7	-9.965e-42
82	0x3d06ab34	0.032878116
83	0xbcb99c01	-0.022657396
84	0xbe32b2a7	-0.17450963
85	0x80001bf9	-1.0035e-41
86	0x3deda0a8	0.116029084
87	0x3d5afaa7	0.053461697
88	0x3dc0492b	0.09388956
89	0xbcc5962b	-0.024119457
90	0x00001b97	9.897e-42
91	0xbe52ff19	-0.20605125
92	0x0000221d	1.2238e-41
93	0x3d33dba8	0.043910652
94	0x80001b5c	-9.815e-42
95	0x80001bd7	-9.987e-42
96	0xbe0b4ab8	-0.13602722
97	0x80001b65	-9.827e-42
98	0x80001bae	-9.93e-42
99	0x3ddb5fde	0.107116446
100	0x3dc75166	0.097323224
101	0xbd880ccb	-0.06643065
102	0x3bef934c	0.0073112603
103	0xbc49f004	-0.012325291
104	0xbd4d00a3	-0.050049435
105	0x3d143224	0.03618063
106	0x3d582f9a	0.05277977
107	0x3da3e462	0.08002545
108	0x80001ba8	-9.921e-42
109	0x80001ba7	-9.92e-42
110	0x80001bb6	-9.941e-42
111	0xbe0c00a0	-0.13672113
112	0x00001ba2	9.913e-42
113	0x3b551954	0.0032516317
114	0x3ce465e9	0.027880626
115	0x3d97ba55	0.07408587
116	0x80001b82	-9.868e-42
117	0x80001b91	-9.889e-42
118	0x3db882ea	0.09009345
119	0x80001b58	-9.809e-42
120	0x80001bac	-9.927e-42
121	0xbc527cb1	-0.012847112
122	0xbe0a9902	-0.1353493
123	0x3d803e3c	0.0626187
124	0xbd2b87c3	-0.04187752
125	0xbcdaa211	-0.026688607
126	0x3d3aef5a	0.04563842
127	0xbe4e94c2	-0.20173934
128	0x80001ba6	-9.918e-42
129	0x3d02c5d7	0.031926956
130	0xbe37b943	-0.17941765
131	0x3cf092e6	0.029366922
132	0xbc81a599	-0.015826033
133	0x3cfdb6b7	0.030970914
134	0x3c54e9ff	0.012995242
135	0xbe2a6290	-0.16639161
136	0xbd3fdf27	-0.046843674
137	0x3d332523	0.04373659
138	0xbda83536	-0.08213274
139	0x3d9debc0	0.07710981
140	0x3cad0cdf	0.021124301
141	0x80001b8b	-9.88e-42
142	0x3deea0b8	0.116517484
143	0xbe210807	-0.15725718
144	0x3d5a2d6a	0.053265966
145	0x80001b6a	-9.834e-42
146	0xbe33eeee	-0.17571613
147	0x3d81d5a4	0.06339577
148	0x3bf90678	0.007599648
149	0x80001b6c	-9.837e-42
150	0x3e1aaa5c	0.1510405
151	0x3cfadaae	0.030621853
152	0x3df8e4e8	0.121530354
153	0xbe082b4e	-0.1329777
154	0x00001b9c	9.904e-42
155	0xbbaa2e0c	-0.0051934775
156	0x00001b73	9.847e-42
157	0xbd5869a3	-0.052835118
158	0x80001b74	-9.848e-42
159	0x80001b7b	-9.858e-42
160	0x3c29a0ba	0.010353262
161	0x80001bc0	-9.955e-42
162	0x80001b9b	-9.903e-42
163	0x3e5685fa	0.20949546
164	0x3d8f8a03	0.070087455
165	0xbbaf3746	-0.0053471653
166	0xbe1b28cc	-0.15152282
167	0x3d096f5f	0.033553477
168	0x3c14af4a	0.009074995
169	0x3d333330	0.043749988
170	0x3c955aa0	0.01823169
171	0x3e3cba42	0.18430427
172	0x80001b5c	-9.815e-42
173	0x00001b6d	9.839e-42
174	0x00001bc1	9.956e-42
175	0x3d511d0a	0.051053084
176	0x00001b93	9.892e-42
177	0x3b9ff135	0.004881049
178	0x3d4beca8	0.04978624
179	0xbbd9f566	-0.006651568
180	0x80001c76	-1.021e-41
181	0x80001b74	-9.848e-42
182	0x3e0da9a0	0.13834238
183	0x80001b58	-9.809e-42
184	0x80001b8c	-9.882e-42
185	0xbd83d896	-0.06437795
186	0x3d10e31d	0.035372842
187	0xbc373928	-0.011183061
188	0x3d740cae	0.059582405
189	0x3cf0dab6	0.029401165
190	0xbd0acb26	-0.033885144
191	0xbe113e6a	-0.14183965
192	0x00001b5b	9.813e-42
193	0x3d70c70c	0.058783576
194	0x3d438b66	0.047740363
195	0x3d7fe3af	0.062472995
196	0xbdfa09c3	-0.12208893
197	0xbabe673e	-0.0014526618
198	0xbde33ebd	-0.11095951
199	0x3d040edd	0.032240737
200	0x3dd5cf42	0.10439922
201	0x3e0eb3be	0.13935754
202	0x3d8a74e0	0.067605734
203	0xbe0e45f0	-0.13893867
204	0xbc5545c9	-0.013017126
205	0x00001b93	9.892e-42
206	0x3d2dd5b2	0.042440124
207	0xbd8368f4	-0.064165026
208	0x3c059bd3	0.008154827
209	0x80001b6d	-9.839e-42
210	0xbe578f4c	-0.21050757
211	0xbe2086ca	-0.15676418
212	0xbd280f67	-0.041030314
213	0x00001b6d	9.839e-42
214	0x3db01a0c	0.08598718
215	0xba339f23	-0.00068520213
216	0xbda4d953	-0.08049264
217	0x3bbaed14	0.0057045314
218	0x00001b96	9.896e-42
219	0x3d96e2c3	0.0736747
220	0x80001b8a	-9.879e-42
221	0x3d452ce5	0.048138518
222	0x00001b72	9.846e-42
223	0x80001b8e	-9.885e-42
224	0x3d953d29	0.07287056
225	0x80001b88	-9.876e-42
226	0x00001b5a	9.812e-42
227	0xbd4e6c58	-0.050396293
228	0xbd09d8e0	-0.033654094
229	0x3dcfbd75	0.10143558
230	0x3d8db7e3	0.06919839
231	0xbd434ad2	-0.047678776
232	0x3c910e39	0.017706977
233	0x3d84a67e	0.06477068
234	0x3de98b14	0.1140348
235	0x3d9540a7	0.07287722
236	0x80001b5a	-9.812e-42
237	0x00001b61	9.822e-42
238	0x80001b59	-9.81e-42
239	0xbc374e23	-0.011188063
240	0x80001b94	-9.893e-42
241	0x3aec77e6	0.0018041104
242	0xbd34caa3	-0.044138562
243	0xbcde4201	-0.027131082
244	0x80001b84	-9.871e-42
245	0x80001ba7	-9.92e-42
246	0x3c83be9f	0.016082106
247	0x80001b5f	-9.819e-42
248	0x00001b74	9.848e-42
249	0x3d2608df	0.040535804
250	0xbd1ff69a	-0.039053537
251	0xbca1d174	-0.019753195
252	0xbcf412eb	-0.029794177
253	0xbc327ce2	-0.010894032
254	0x3dc1545b	0.09439918
255	0xbe48fbe0	-0.19627333

interaction_bias f4 [64]
0	0x00000000	0.0
1	0x00000000	0.0
2	0x00000000	0.0
3	0x00000000	0.0
4	0x00000000	0.0
5	0x00000000	0.0
6	0x00000000	0.0
7	0x00000000	0.0
8	0x00000000	0.0
9	0x00000000	0.0
10	0x00000000	0.0
11	0x00000000	0.0
12	0x00000000	0.0
13	0x00000000	0.0
14	0x00000000	0.0
15	0x00000000	0.0
16	0x00000000	0.0
17	0x00000000	0.0
18	0x00000000	0.0
19	0x00000000	0.0
20	0x00000000	0.0
21	0x00000000	0.0
22	0x00000000	0.0
23	0x00000000	0.0
24	0x00000000	0.0
25	0x00000000	0.0
26	0x00000000	0.0
27	0x00000000	0.0
28	0x00000000	0.0
29	0x00000000	0.0
30	0x00000000	0.0
31	0x00000000	0.0
32	0x00000000	0.0
33	0x00000000	0.0
34	0x00000000	0.0
35	0x00000000	0.0
36	0x00000000	0.0
37	0x00000000	0.0
38	0x00000000	0.0
39	0x00000000	0.0
40	0x00000000	0.0
41	0x00000000	0.0
42	0x00000000	0.0
43	0x00000000	0.0
44	0x00000000	0.0
45	0x00000000	0.0
46	0x00000000	0.0
47	0x00000000	0.0
48	0x00000000	0.0
49	0x00000000	0.0
50	0x00000000	0.0
51	0x00000000	0.0
52	0x00000000	0.0
53	0x00000000	0.0
54	0x00000000	0.0
55	0x00000000	0.0
56	0x00000000	0.0
57	0x00000000	0.0
58	0x00000000	0.0
59	0x00000000	0.0
60	0x00000000	0.0
61	0x00000000	0.0
62	0x00000000	0.0
63	0x00000000	0.0

node_encoder.0.weight f4 [64, 70]
0	0xbb53fb2a	-0.003234575
1	0xb70c044d	-8.345652e-06
2	0xb97db3c8	-0.00024194934
3	0x3a86b6a0	0.0010277815
4	0xbc438d49	-0.0119355405
5	0xbb7d9b48	-0.0038697291
6	0xbd361638	-0.044454783
7	0x3b36eb47	0.0027911232
8	0xbbada8a6	-0.0052996455
9	0x3dc6aad1	0.097005494
10	0xbabad07d	-0.0014252808
11	0xbc0fa550	-0.008767441
12	0x3b0aa6f5	0.0021156643
13	0x3c1750fa	0.009235615
14	0xba5e63ea	-0.0008483516
15	0xbbd32343	-0.0064434125
16	0xbbe3305f	-0.0069332565
17	0xba19ad15	-0.0005862278
18	0x3bcc6a77	0.0062382775
19	0x3b9da911	0.004811414
20	0xbc44291b	-0.011972691
21	0xbc11962b	-0.0088859005
22	0x3c9ce44e	0.019151833
23	0xbca803f1	-0.020509692
24	0x3a2894dd	0.0006430874
25	0xbd8aef04	-0.0678387
26	0x3bb81d28	0.00561871
27	0x3cddde6b	0.027083596
28	0xbbb97124	-0.0056592394
29	0x3af3e31b	0.0018607111
30	0x3baad130	0.0052129254
31	0x3c991dd6	0.018690985
32	0xbc0f376c	-0.008741241
33	0x3c389aa7	0.011267341
34	0xba60ccdf	-0.000857545
35	0x3a2da8ff	0.00066246086
36	0x3c5fe8f8	0.013666384
37	0x3b06a7fd	0.0020546906
38	0x00001c34	1.0117e-41
39	0x3d135326	0.03596797
40	0xbcc3c787	-0.023898853
41	0xbdbc74d9	-0.092019744
42	0xbcd077e9	-0.025447803
43	0x3e11851f	0.14210938
44	0x3a2894dd	0.0006430874
45	0x398df040	0.00027072616
46	0x80001be0	-1e-41
47	0x00001bfe	1.0042e-41
48	0x80001d69	-1.055e-41
49	0x80001ccc	-1.033e-41
50	0xbca92c0d	-0.020650888
51	0xba88443b	-0.0010396311
52	0xb8797ae8	-5.948069e-05
53	0x3d0280b7	0.031861033
54	0x80001fab	-1.136e-41
55	0x80001b60	-9.82e-42
56	0x80001b69	-9.833e-42
57	0x3d6812a2	0.056658395
58	0x3d116d13	0.035504412
59	0x3c4a7d22	0.012358936
60	0xbcb3cb3a	-0.021947492
61	0xbd49d3b3	-0.049274158
62	0xba672b5f	-0.00088184135
63	0xbc03a85d	-0.008035746
64	0x3db6feb3	0.08935299
65	0x3d0759e5	0.033044714
66	0xbd2b67a8	-0.0418469
67	0x3b608155	0.0034256775
68	0x3d132303	0.03592206
69	0x3a9970d5	0.00117066
70	0x39fd97ef	0.0004836912
71	0xbb88ca86	-0.0041745333
72	0xbab7370f	-0.0013978201
73	0x3a507725	0.0007952324
74	0x3e0cb0fc	0.13739389
75	0xbcd651e5	-0.026162097
76	0xbd33aafc	-0.043864235
77	0x3c40ad91	0.011760131
78	0xbbc48e92	-0.005998441
79	0xbcf10bf6	-0.029424649
80	0xb97fe6b1	-0.00024404634
81	0xbc476046	-0.0121689495
82	0xb99bdca1	-0.00029728285
83	0x3aa22df8	0.0012373319
84	0xbc9e3940	-0.019314408
85	0xba19887e	-0.0005856826
86	0xbd244786	-0.040107273
87	0xb8bd6703	-9.03141e-05
88	0x3d68731d	0.056750406
89	0xbb90a57d	-0.004414259
90	0x3d51b54c	0.05119829
91	0xb5710118	-8.978109e-07
92	0xb92687ea	-0.00015881626
93	0x3c44d67f	0.0120140305
94	0xb92498a4	-0.00015697122
95	0xbe02f91b	-0.12790339
96	0x3b01a591	0.0019782523
97	0x3c88e474	0.016710497
98	0xb9d4b67e	-0.00040571758
99	0x3b84bab1	0.0040505757
100	0x3b004d4c	0.0019577323
101	0x3e4b7f45	0.19872768
102	0x3d2ea553	0.042638134
103	0x39cd6816	0.00039178197
104	0x3a57eb97	0.0008236705
105	0x385633d9	5.1069863e-05
106	0xbd15c839	-0.0365679
107	0xba694cd1	-0.0008899691
108	0x00001bfd	1.004e-41
109	0x3c3fdb3f	0.011709987
110	0x3c5ec720	0.01359728
111	0x3d0a034f	0.03369456
112	0x3c9b5e71	0.018965932
113	0x3b1bd7fe	0.0023779864
114	0xb92498a4	-0.00015697122
115	0x3b7af083	0.0038290329
116	0x00001f42	1.1213e-41
117	0x80001c82	-1.0227e-41
118	0x00001b89	9.878e-42
119	0x80001cb1	-1.0293e-41
120	0x3d395ecc	0.04525642
121	0x3ccd7afc	0.025083058
122	0x3d317b66	0.043330573
123	0xbcc618c6	-0.024181735
124	0x80001fd5	-1.1419e-41
125	0x80001b69	-9.833e-42
126	0x00001b76	9.851e-42
127	0xbd97d12b	-0.074129425
128	0xbb93adf3	-0.0045068203
129	0xbcaf7493	-0.021417892
130	0x3d5a9cee	0.053372316
131	0xbce1c660	-0.027560413
132	0xb913c330	-0.00014091725
133	0x3d17cf86	0.037063144
134	0xbddc464f	-0.10755598
135	0xbc66a0f6	-0.014076462
136	0x3d89c1df	0.06726431
137	0x3d30333f	0.043017622
138	0xbcbca24f	-0.023026614
139	0xb9a72d5c	-0.00031886518
140	0xbbe4b058	-0.0069790296
141	0xbb892765	-0.0041856044
142	0x3d7e185b	0.062034946
143	0xbb6f835b	-0.00365468
144	0xbc379b84	-0.011206511
145	0x3e2baf5a	0.1676611
146	0xbe107a20	-0.14109087
147	0x38baba51	8.903875e-05
148	0x3e1d7e89	0.153803
149	0xbd615479	-0.0550122
150	0x3c6c6e17	0.014430544
151	0x3d8b3cc9	0.06798703
152	0x3b5107d3	0.0031895533
153	0x3ce50c08	0.027959839
154	0x3c8ef8e7	0.01745267
155	0xb9c95ed3	-0.00038408357
156	0x3e6db1d1	0.23212363
157	0xb98d214c	-0.00026918424
158	0xbca0d94f	-0.01963487
159	0x3cfe01d9	0.03100674
160	0xbc77b30b	-0.015118371
161	0x3b05823c	0.0020371815
162	0xb964f230	-0.00021833996
163	0xbc17e1e5	-0.009270166
164	0xbb00a8fa	-0.0019631968
165	0x3d127f8e	0.035766177
166	0x3cd93119	0.02651267
167	0xbca73f13	-0.020415818
168	0xb94306fe	-0.00018599254
169	0xbcccab6f	-0.02498409
170	0xbd0b57b6	-0.034019195
171	0xbd53cecb	-0.051710885
172	0xbcec50dc	-0.02884715
173	0x3bc63b13	0.0060495227
174	0xbd716a89	-0.05893949
175	0x3a490671	0.00076685013
176	0x3dda0a16	0.10646455
177	0xba879007	-0.0010342606
178	0x0000219e	1.206e-41
179	0x3d061d9a	0.032743074
180	0xbd5b8ade	-0.05359923
181	0x3c33d783	0.010976675
182	0xbb589a01	-0.0033050778
183	0xbd7c0739	-0.061530326
184	0xbb00a8fa	-0.0019631968
185	0xbc2b6a90	-0.010462418
186	0x00001cbf	1.0312e-41
187	0x8000216e	-1.1992e-41
188	0x80001bfd	-1.004e-41
189	0x80001bdf	-9.998e-42
190	0xbc65e728	-0.014032163
191	0x3d67ea0c	0.05661969
192	0xbcaeaec1	-0.021323564
193	0xbcd6fec5	-0.02624453
194	0x00001b76	9.851e-42
195	0x00001bd2	9.98e-42
196	0x00001c8c	1.024e-41
197	0xbd1b17a2	-0.037864335
198	0x3caf31cd	0.021386052
199	0xbcea5cfd	-0.028608793
200	0x3b9b6414	0.004742155
201	0xbc1fb22c	-0.009747069
202	0x3c2336eb	0.009961824
203	0x3d68ea2f	0.05686396
204	0xbd01af0c	-0.03166108
205	0x3da8fd5a	0.08251448
206	0xbcc03e40	-0.023467183
207	0xbcac9635	-0.021067718
208	0xbcef8d3b	-0.029242149
209	0x37837216	1.5669542e-05
210	0x3a9c63a3	0.001193155
211	0xba2db33d	-0.0006626135
212	0x3b0d227b	0.0021535445
213	0x3904d507	0.0001266786
214	0x3ba94074	0.005165154
215	0x3abcc71f	0.0014402604
216	0xbd769f1c	-0.060210332
217	0xbb2888a2	-0.0025716205
218	0x3b5d1aae	0.0033737826
219	0xbcc90f8f	-0.024543552
220	0x3988e810	0.0002611284
221	0x3c085124	0.008320127
222	0xb9985142	-0.0002905224
223	0x3ac000b4	0.0014648647
224	0xbbcb78af	-0.006209455
225	0xb8ea2bca	-0.00011166146
226	0x3d89777a	0.067122415
227	0xba13c584	-0.0005637037
228	0xba7bd15c	-0.0009606087
229	0x3ab79830	0.0014007147
230	0xbc0ec403	-0.008713725
231	0x3a54c238	0.0008116099
232	0xb9a99558	-0.00032345462
233	0xbca0c2ca	-0.019624133
234	0x390aa892	0.00013223503
235	0x3d1c2eeb	0.038130682
236	0x3a43782f	0.00074565684
237	0xbaab2699	-0.0013057768
238	0x38456282	4.7060203e-05
239	0xbb88da5d	-0.0041764216
240	0xbaadd3aa	-0.0013261933
241	0xbaacb749	-0.0013177182
242	0x3b4f4834	0.003162873
243	0xba51e853	-0.00080073363
244	0xbad4b39b	-0.0016227843
245	0x3898865c	7.272951e-05
246	0x3cca7729	0.024715023
247	0x3a4a84da	0.0007725485
248	0x000020c3	1.1753e-41
249	0x3ac644ea	0.0015126739
250	0xbc193936	-0.009352019
251	0x3d07aaf2	0.03312201
252	0xbd832416	-0.06403367
253	0x3db0168d	0.08598051
254	0x390aa892	0.00013223503
255	0xbb7ed16c	-0.003888215

node_encoder.0.bias f4 [64]
0	0xbdc78e19	-0.097439
1	0xbd9a115d	-0.07522843
2	0xbd4a59e8	-0.049402148
3	0xbdc8ddb2	-0.0980791
4	0xbe049a67	-0.12949525
5	0xbd5e3977	-0.05425402
6	0xbd9bd344	-0.07608655
7	0xbd582831	-0.052772705
8	0xbdebdf84	-0.115172416
9	0xbdb3caa5	-0.08778886
10	0xbdb5818f	-0.08862602
11	0xbdaed302	-0.0853634
12	0xbda8b2c6	-0.08237223
13	0xbda5d39d	-0.08097003
14	0xbc907e90	-0.017638475
15	0xbd8db024	-0.06918362
16	0xbd8e6221	-0.0695231
17	0xbd3831fb	-0.04496954
18	0xbdddaf07	-0.108243994
19	0xbd7e9bab	-0.062160175
20	0xbd8f463f	-0.0699582
21	0xbdced14d	-0.10098515
22	0xbd6b95d3	-0.05751593
23	0xbd876089	-0.066102095
24	0xbd948c94	-0.07253376
25	0xbda0e669	-0.07856447
26	0xbd9606c6	-0.07325511
27	0xbdc1db8e	-0.09465705
28	0xbddac621	-0.10682321
29	0xbd6b9116	-0.05751141
30	0xbdb7ef94	-0.08981243
31	0xbdb55574	-0.088541895
32	0xbcc45669	-0.023966985
33	0xbde5d3ce	-0.11222039
34	0xbde5381f	-0.11192345
35	0xbd86bf1a	-0.065794185
36	0xbddacbf2	-0.10683431
37	0xbda123dc	-0.07868168
38	0xbd9c526e	-0.0763291
39	0xbd1c9cc1	-0.03823543
40	0x3b9ff39e	0.0048813364
41	0xbdd3901c	-0.10330221
42	0xbe052134	-0.13000947
43	0xbe1115ca	-0.14168468
44	0xbd659041	-0.056045774
45	0xbdd14700	-0.1021862
46	0xbe08b96f	-0.13351987
47	0xbd6f00e8	-0.058350474
48	0xbde157c5	-0.11003069
49	0xbdc5500c	-0.09634408
50	0xbdf33e47	-0.11877113
51	0xbdc12935	-0.09431688
52	0xbd888592	-0.066661015
53	0xbcc44cf1	-0.02396247
54	0xbd867a69	-0.06566317
55	0xbde040e9	-0.10949881
56	0xbd9e1274	-0.077183634
57	0xbdb6f2f8	-0.08933061
58	0xbdab174f	-0.08354055
59	0xbd7ea67b	-0.062170487
60	0xbe168384	-0.14698607
61	0xbe0215ff	-0.12703703
62	0xbdb9dc1b	-0.09075185
63	0xbdba8508	-0.09107405

node_encoder.3.weight f4 [64, 64]
0	0xbd60f689	-0.054922614
1	0x3ceb75b5	0.02874265
2	0xbc8f30f2	-0.017479394
3	0x3d17d64f	0.037069615
4	0xbc180fd0	-0.009281114
5	0x3c9467b3	0.018115854
6	0x383a95c6	4.4485343e-05
7	0x3d8680cd	0.065675355
8	0x3b12e841	0.0022416266
9	0xbd5ead22	-0.05436433
10	0x3d9eb0f4	0.07748595
11	0x3d2ac9e4	0.041696444
12	0x3cd8493a	0.026402105
13	0xbc24c107	-0.010055787
14	0xbcf256a9	-0.029582338
15	0x3c75a886	0.014993792
16	0xbafcb68e	-0.001928048
17	0x3cbc40f2	0.022980187
18	0xbcd9db99	-0.02659397
19	0xbd53f273	-0.05174489
20	0xbd17f823	-0.037101876
21	0x3d238f95	0.039931852
22	0x3da0c281	0.07849599
23	0xbc935b17	-0.017987771
24	0x3cf9fe03	0.03051663
25	0xbc79b623	-0.015241179
26	0xbcd321a2	-0.025772873
27	0xbd5f3341	-0.05449224
28	0x3da4faa7	0.08055621
29	0x3db4d7bc	0.088302106
30	0x3d0beaf4	0.034159616
31	0xbcfadd86	-0.030623209
32	0x3dbf5316	0.09342019
33	0xbd24bb12	-0.040217467
34	0x3c907b4a	0.017636914
35	0x3ca53e2a	0.020171244
36	0xbc93c1ae	-0.01803669
37	0x3d29d2b4	0.041460708
38	0x3d8a0adb	0.06740352
39	0x3cb02eaf	0.021506635
40	0xbc75f1b0	-0.015011236
41	0x3bc62df3	0.006047958
42	0xbd369b79	-0.044581864
43	0x3d1e0a14	0.03858383
44	0x3d1bfb2f	0.038081344
45	0xbcaa6163	-0.02079839
46	0x3c9749e9	0.01846786
47	0xbda228ba	-0.07917924
48	0xbd3acb74	-0.045604184
49	0xbd438778	-0.047736615
50	0xbd21ff3c	-0.03955005
51	0xbd947325	-0.072485246
52	0x3c827807	0.015926374
53	0x3d95d89d	0.07316706
54	0x3c9e0940	0.01929152
55	0xbd10856b	-0.035283487
56	0xbcb005db	-0.021487167
57	0x3cce8125	0.025208065
58	0x3d42858c	0.04749064
59	0xbccc1c42	-0.024915818
60	0xbd5aef0b	-0.053450625
61	0x3cb6ff55	0.022338549
62	0xbc5b2d06	-0.013377434
63	0xbd64cb5b	-0.055857997
64	0xbdb64914	-0.08900657
65	0x3a8e77ae	0.0010869408
66	0x3d62a916	0.055337034
67	0x3ca3eeea	0.020011384
68	0xbb9ddd30	-0.0048176274
69	0x3d13f130	0.036118686
70	0xbe0a4ec0	-0.13506603
71	0x3d85ed83	0.065394424
72	0x3cda8aec	0.026677571
73	0xbb423361	-0.0029632675
74	0x3d75ad62	0.059979804
75	0x3d99c57b	0.075083695
76	0x3ce34b81	0.027745964
77	0xbd636f7f	-0.055526253
78	0x3af7bae8	0.0018900307
79	0x3cd91d8c	0.026503347
80	0x3d11335d	0.035449374
81	0x3c6ecbb7	0.014574937
82	0xbc81fbdf	-0.015867172
83	0xbc44724e	-0.011990143
84	0xbdc33041	-0.09530688
85	0x3c94d4cb	0.018167874
86	0xbaa8fa57	-0.001289199
87	0xbc88cfef	-0.016700713
88	0x390325f3	0.00012507271
89	0xbd8aa8c8	-0.06770474
90	0xbcfdddee	-0.030989613
91	0xbdba2248	-0.0908857
92	0x3b8cd5b1	0.004297935
93	0x3cb196aa	0.021678288
94	0xbdd3bcfa	-0.10338779
95	0xbd1b2dc7	-0.037885454
96	0x3b278545	0.0025561613
97	0xbc494005	-0.01228333
98	0x3bb6c8d4	0.00557814
99	0x3cb31eff	0.021865366
100	0x3bdda226	0.0067637144
101	0x3d0a3dfd	0.033750523
102	0xbbbc3760	-0.005743906
103	0xbcdcd98a	-0.0269592
104	0xbdbf9903	-0.093553565
105	0x3c053e42	0.008132519
106	0xbdbf93c0	-0.09354353
107	0x3a99a12c	0.0011721007
108	0x3d16bf3d	0.036803473
109	0xbbedb1bd	-0.007253854
110	0xbcabc3b2	-0.020967338
111	0xbc3d1fa3	-0.011543187
112	0x3c87ba8f	0.01656845
113	0xbcfbeb73	-0.03075192
114	0x3bc7c79b	0.006096793
115	0x3cf612e2	0.0300383
116	0xbdd95623	-0.106121324
117	0xbd91a3e3	-0.07111337
118	0x3be1fb7c	0.0068964344
119	0x3d8aff36	0.06786959
120	0xbbb01142	-0.005373151
121	0xbcbae1ab	-0.022812685
122	0x3c0d889a	0.008638525
123	0x3bdba973	0.0067035495
124	0x3cf28f6c	0.029609405
125	0x3c3ca373	0.011513579
126	0xbc1bf96b	-0.009519915
127	0xbd3448fb	-0.044014912
128	0x3cbde7bb	0.023181787
129	0xbd915224	-0.07095745
130	0x3cf8eb8f	0.03038576
131	0xbcf8f1ae	-0.03038868
132	0x3d59bd04	0.053158775
133	0xbbef19a4	-0.007296758
134	0x3c47153f	0.012151062
135	0xbd2b3ca0	-0.041805863
136	0x3cd87aba	0.026425708
137	0x3a93d590	0.0011278857
138	0xbd1758fe	-0.036950104
139	0xbd197ed3	-0.037474465
140	0x3cc46fbe	0.023979064
141	0x3d2da390	0.042392313
142	0xbc19347e	-0.009350894
143	0x3bf1ac89	0.007375304
144	0x3c7da934	0.015482236
145	0x3d0ca835	0.034340102
146	0x3deb2650	0.11481917
147	0x3ced50b7	0.028969152
148	0x3d044f5e	0.032302253
149	0x3db2864d	0.08717022
150	0xbd41a610	-0.04727751
151	0x3d22a20c	0.03970532
152	0xbe0499ad	-0.12949248
153	0xbccf0505	-0.025270948
154	0x3c8ee578	0.017443404
155	0x3cb7bdbd	0.022429341
156	0xbd0b1678	-0.033956975
157	0x3cb4dbbe	0.022077437
158	0x3c944498	0.018099114
159	0x3cb7b517	0.022425218
160	0x3d0098c6	0.031395696
161	0x3cf48f9d	0.029853636
162	0x3dcd86d1	0.1003548
163	0x3d13abc9	0.0360525
164	0x3d2acc40	0.041698694
165	0x3d01195e	0.031518333
166	0x3d4dc2e9	0.05023471
167	0x3dae9751	0.08524955
168	0xbb92964a	-0.0044734823
169	0x3d1da14c	0.038483903
170	0x3d033a4c	0.032038018
171	0xbbbfed55	-0.0058571496
172	0x3cb2e799	0.02183895
173	0x3cd8bf60	0.026458442
174	0xbe3182f1	-0.17335106
175	0x3d1b908e	0.037979655
176	0x3d0016b1	0.03127164
177	0x3c3801ec	0.011230927
178	0x3d069509	0.032856975
179	0x3cd757ab	0.02628692
180	0x3c839e94	0.016066827
181	0xba76039b	-0.00093846925
182	0xbc06893a	-0.008211428
183	0xbd168ea4	-0.036757126
184	0x3cbb4eec	0.022864781
185	0x3d84ed75	0.06490604
186	0x3ddd77c7	0.10813861
187	0x3b5a91a9	0.003335098
188	0x3ca2fc1a	0.019895602
189	0x3d827b6f	0.06371199
190	0x3ca27044	0.019828923
191	0xbc2a949e	-0.01041141
192	0x3c6d514a	0.014484713
193	0xbb8a714d	-0.0042249323
194	0xbcb6f86a	-0.02233525
195	0xbd8dd384	-0.06925109
196	0x3caa7aec	0.020810567
197	0x3c158866	0.009126758
198	0x3c8a2c44	0.01686681
199	0x3def973f	0.1169877
200	0xbca977c7	-0.020686997
201	0xbd22eda8	-0.039777428
202	0x3e076e13	0.13225584
203	0x3d661aab	0.056177776
204	0xbcef54f2	-0.02921531
205	0x3d06f69e	0.032950036
206	0x3c1d1388	0.009587176
207	0xbc82f72c	-0.015987001
208	0xbdcec505	-0.10096172
209	0xbbc9ded6	-0.0061605973
210	0xbb84c135	-0.0040513524
211	0xbc1f21f6	-0.009712687
212	0xbd88696e	-0.06660734
213	0x3c7ee226	0.015556848
214	0xbccceac7	-0.025014294
215	0xbb7b2060	-0.0038318858
216	0xbc0b7204	-0.00851107
217	0xbc817b06	-0.015805732
218	0xbcce3399	-0.025171088
219	0x3cd9e208	0.026597038
220	0xbd2b9c59	-0.04189715
221	0xbd877ce7	-0.0661562
222	0xbba5bb43	-0.0050577237
223	0x3c6edcc4	0.014579002
224	0xbb718b7d	-0.0036856823
225	0x3bc9cdfa	0.0061585875
226	0x3b85edd3	0.0040871887
227	0xbc30dc37	-0.010794691
228	0xbd5540a9	-0.052063618
229	0xbbbe5754	-0.00580875
230	0xbca9d5df	-0.020731864
231	0x3c87a4b5	0.01655803
232	0x3d8704fc	0.065927476
233	0xbcb6bbe6	-0.022306394
234	0x3a96c7cf	0.0011503639
235	0xbd698929	-0.05701557
236	0x3bcacfd2	0.006189325
237	0xbbe0eb25	-0.006863969
238	0xbd5cb2f6	-0.053881608
239	0x3c91b43b	0.017786136
240	0x3cac11c6	0.021004569
241	0xba04adc8	-0.0005061296
242	0xbd12c634	-0.035833552
243	0xbd34709b	-0.0440527
244	0xbc6ff812	-0.014646547
245	0x3da3b6ab	0.079938255
246	0x3c866692	0.016406331
247	0x3de2812a	0.11059792
248	0xbb52f660	-0.0032190308
249	0xbd46cde6	-0.048536204
250	0xbc8c3510	-0.017115146
251	0x3bbde443	0.005795033
252	0xbe0fe6ec	-0.14052933
253	0x3d05a0bc	0.03262399
254	0xbb6ea8f3	-0.003641662
255	0x3c31e1ac	0.010857027

node_encoder.3.bias f4 [64]
0	0x37ff1b93	3.0411209e-05
1	0xb757c976	-1.2861905e-05
2	0xb796ec3e	-1.7991402e-05
3	0x382c1419	4.1026713e-05
4	0xb81db313	-3.7598493e-05
5	0x3891eb1d	6.957932e-05
6	0x387c86c7	6.0207003e-05
7	0xb3cb0797	-9.454305e-08
8	0xb7ebbcee	-2.810216e-05
9	0xb791a50c	-1.7362203e-05
10	0x37dd385d	2.63715e-05
11	0x3792caad	1.7498935e-05
12	0x37d9b99e	2.595485e-05
13	0xb8becfe6	-9.09863e-05
14	0x37adbe91	2.0711946e-05
15	0xb5c44a19	-1.4624703e-06
16	0xb864e500	-5.457271e-05
17	0x381f431f	3.7971065e-05
18	0x36eb538d	7.0132724e-06
19	0x38f3d993	0.00011627669
20	0x3778b262	1.4823485e-05
21	0xb7950f24	-1.7769235e-05
22	0x37762c47	1.4673052e-05
23	0x37b9d91c	2.2154818e-05
24	0x380d3f52	3.367599e-05
25	0xb809172f	-3.2684937e-05
26	0x38cc5dd0	9.744952e-05
27	0x34a7fc24	3.128963e-07
28	0x36bfc017	5.714606e-06
29	0xb72ac8d5	-1.01795495e-05
30	0xb62e8b8e	-2.6009252e-06
31	0x388b4770	6.641343e-05
32	0xb63340ae	-2.6710727e-06
33	0xb6712595	-3.5933674e-06
34	0x382e6ac6	4.1584273e-05
35	0xb6535038	-3.1488144e-06
36	0xb8a68998	-7.941126e-05
37	0xb814ea9b	-3.5504443e-05
38	0x36330d6d	2.6680893e-06
39	0xb6b90798	-5.5143137e-06
40	0xb84fde2a	-4.9559552e-05
41	0xb7961933	-1.7893128e-05
42	0x3827a656	3.9970815e-05
43	0xb855a584	-5.0937306e-05
44	0xb82663d9	-3.9670475e-05
45	0x38fe16e2	0.00012115926
46	0x329ca5c3	1.823617e-08
47	0xb83e5f36	-4.5388202e-05
48	0x37afd5c3	2.0961166e-05
49	0x3889b28e	6.5659275e-05
50	0xb7712ffd	-1.43758925e-05
51	0x388e9157	6.798159e-05
52	0xb8310223	-4.220208e-05
53	0xb7bb99c4	-2.236374e-05
54	0xb7f3cd7d	-2.9063545e-05
55	0xb75d5914	-1.3193367e-05
56	0xb70ffd99	-8.5825095e-06
57	0xb7999ff2	-1.8313502e-05
58	0x38a8e9b4	8.054395e-05
59	0x378d7aec	1.686575e-05
60	0x38c59b84	9.422659e-05
61	0xb8ce7cd3	-9.846096e-05
62	0xb75dadea	-1.3213119e-05
63	0x38128ca0	3.494008e-05

node_encoder.4.weight f4 [64]
0	0x3f684e3e	0.9074439
1	0x3f7e3cb7	0.99311393
2	0x3f7bb2b5	0.9831956
3	0x3f6fa3b0	0.9360914
4	0x3f65f6a8	0.8982949
5	0x3f4154d9	0.7552009
6	0x3f6d8a5c	0.92789245
7	0xb976a96c	-0.00023523503
8	0x3eff7f1c	0.49901664
9	0x3f2dc912	0.67884934
10	0x3f5cceed	0.86253244
11	0x3f6f45fa	0.9346615
12	0x3f7e7818	0.99402
13	0x3f5f0647	0.87118953
14	0x3f03d212	0.51492417
15	0x3b393cd5	0.0028265018
16	0x3f658dfc	0.89669776
17	0x3f7a6e27	0.9782433
18	0x3f654589	0.8955923
19	0x3f75fec1	0.9609185
20	0x3f2fa874	0.68616414
21	0x3f501f8e	0.8129815
22	0x3f59250b	0.8482215
23	0x3f603e54	0.87595105
24	0x3f88801d	1.0664097
25	0x3f72fc98	0.9491668
26	0x3f76ae21	0.9635945
27	0x3f916b7a	1.1360924
28	0x3f4cced1	0.80003077
29	0x3f65a42f	0.8970365
30	0x3f69f392	0.91387284
31	0x3efab5a9	0.4896672
32	0x3f4b8ca3	0.7951147
33	0x3f2e8dc4	0.6818507
34	0x3f883044	1.063973
35	0x3f5e61f3	0.8686821
36	0x3f4c6338	0.79838896
37	0x3f8db855	1.1071879
38	0x3f7010b0	0.93775463
39	0x3f81b873	1.0134414
40	0x3f775f97	0.96630234
41	0x3f8689ef	1.0510844
42	0x3f7a7544	0.97835183
43	0x3f4028ba	0.75062144
44	0x3f789b93	0.9711239
45	0x3f4989cf	0.78725904
46	0x3807a0f7	3.233642e-05
47	0x3f7278e8	0.9471574
48	0x3f85ae1a	1.0443757
49	0x3f81a1b5	1.0127474
50	0x3f73ca04	0.95230126
51	0x3f87409b	1.0566591
52	0x3f650cee	0.89472854
53	0x3ed15dce	0.4089188
54	0x3f8f171f	1.1178931
55	0x3eebef0b	0.46080813
56	0x3e04a510	0.12953591
57	0x3f8757c6	1.0573661
58	0x3f67ba05	0.9051822
59	0x3eea56d3	0.45769367
60	0x3f75c2b7	0.96000236
61	0x3f531130	0.824481
62	0x3f3cbcda	0.73725665
63	0x3f7c2fdc	0.9851053

node_encoder.4.bias f4 [64]
0	0x3eba123c	0.36342037
1	0xbdf3847a	-0.11890502
2	0xbd54833e	-0.051882975
3	0xbe0eba52	-0.13938263
4	0xbe406e26	-0.18792018
5	0xbab1e348	-0.0013571763
6	0x3eabdf6d	0.33568898
7	0xbe15ec61	-0.14640953
8	0x3da783e0	0.0817945
9	0xbf057790	-0.5213556
10	0xbbefa70e	-0.0073136156
11	0xbe5f792c	-0.21823567
12	0xbcf7f7e9	-0.03026958
13	0x3d9786ba	0.07398744
14	0xbd304e48	-0.043043405
15	0xbf1f4c22	-0.62225544
16	0xbe549bf2	-0.20762613
17	0x3f2fb3eb	0.6863391
18	0x3e98a08a	0.29809982
19	0x3e91e943	0.28498277
20	0x3d8cdd8d	0.06878195
21	0x3d14aaca	0.03629569
22	0xbc88b96b	-0.016689977
23	0xbe8ce0e9	-0.27515343
24	0xbe3f7fe5	-0.18701132
25	0xbd4b1c94	-0.0495878
26	0x3de4fb35	0.111807264
27	0xbf00c943	-0.503071
28	0xbd13f416	-0.03612145
29	0xbe7c750d	-0.24654026
30	0x3e9ebb0c	0.3100208
31	0xbecd65b0	-0.40116644
32	0x3e16dd20	0.1473279
33	0x3dfc2bbe	0.12313031
34	0xbded555a	-0.11588545
35	0xbbb56597	-0.005535792
36	0xbd39e4ce	-0.04538422
37	0x3ea646d6	0.3247592
38	0x3d0fdbb9	0.035121653
39	0x3e721bf9	0.23643483
40	0x3dcd1f88	0.1001578
41	0x3ce94ed3	0.02847997
42	0xbdbde24c	-0.09271678
43	0x3e0eef95	0.13958581
44	0xbdf5dcfc	-0.1200504
45	0xbb94017c	-0.0045167785
46	0x3ea04195	0.31300035
47	0xbe5b8189	-0.21436132
48	0x3d992f8c	0.07479772
49	0x3d029410	0.031879485
50	0x3ef66a78	0.48128104
51	0x3e398240	0.18116093
52	0xbec278aa	-0.37982684
53	0x3e86c9ca	0.26325828
54	0xbf2800b3	-0.65626067
55	0x3f3d8a1e	0.74038875
56	0x3c7db5dc	0.015485253
57	0x3f0dab25	0.5533927
58	0x3e15e8de	0.14639613
59	0x3f440094	0.7656338
60	0xbe26c61c	-0.1628651
61	0xbd4dd8b6	-0.0502555
62	0x3de76186	0.11297898
63	0xbd868aaa	-0.06569417

node_encoder.4.running_mean f4 [64]
0	0x3aefe7f3	0.0018303379
1	0xb9ffc15e	-0.0004878146
2	0x397dbd84	0.0002419856
3	0x3b32f6bd	0.0027307712
4	0xba3a3cb2	-0.0007104381
5	0x3b284e8e	0.0025681588
6	0xba18ec3f	-0.0005833543
7	0xb883d43b	-6.286098e-05
8	0x3aa8c62c	0.0012876443
9	0x3b65629d	0.0035001405
10	0xbaae5ccd	-0.0013302803
11	0x3abbf1c8	0.0014339024
12	0x3b89e3ed	0.004208079
13	0x3946c4e6	0.00018956102
14	0x3a42a58e	0.0007425182
15	0x39358923	0.00017312593
16	0xbb4c45cd	-0.0031169534
17	0x3a0e2d5e	0.00054236304
18	0x396869a0	0.00022164593
19	0x3b8b6d44	0.004254969
20	0x3b185a09	0.0023247025
21	0x39ef2256	0.00045611215
22	0xbb014c57	-0.001972934
23	0xbafd21af	-0.0019312407
24	0x3b216b78	0.0024630707
25	0x3b82950f	0.0039850543
26	0xba963d56	-0.0011462371
27	0xbba367cb	-0.0049867383
28	0xbb57ab7d	-0.0032908611
29	0xbb225b18	-0.0024773534
30	0x3a9194e8	0.0011107
31	0x3bbf7bec	0.00584363
32	0x3b16f60e	0.0023034844
33	0x3b3c1a09	0.0028702042
34	0xbb32e9b1	-0.0027299935
35	0x3ac4a8e7	0.001500395
36	0xbbda7cc5	-0.0066677057
37	0xbba3e4f0	-0.0050016567
38	0x3b4752e8	0.0030414406
39	0x3b7d9358	0.003869256
40	0xbb0bcac2	-0.002133057
41	0xbb4de302	-0.0031415825
42	0x3b6976e6	0.0035623848
43	0xbb32db4e	-0.002729136
44	0xbbd98d0f	-0.00663913
45	0xb8d5cc88	-0.000101947284
46	0xb733fe5c	-1.0728454e-05
47	0xbaa61413	-0.0012670778
48	0x3acf41d9	0.0015812471
49	0x3afcc2cd	0.0019284129
50	0x3b1cc62f	0.0023921838
51	0x3b79be0c	0.0038107662
52	0xbb10ae29	-0.0022076464
53	0xbaa3214a	-0.0012445834
54	0x3c0237c0	0.007947862
55	0xbc04ed81	-0.008113266
56	0xb9708f96	-0.00022941674
57	0xbbb927aa	-0.0056504803
58	0x3be75a52	0.0070603276
59	0xbbf1605a	-0.0073662223
60	0xbabb0dda	-0.0014271096
61	0x3a966dc7	0.0011476808
62	0xbb30f7e6	-0.0027003228
63	0x3b6cb386	0.0036117746

node_encoder.4.running_var f4 [64]
0	0x397a8f6e	0.0002389529
1	0x39be4b1a	0.0003629558
2	0x39acb500	0.00032941252
3	0x395e23f6	0.00021184966
4	0x3961f86f	0.00021550221
5	0x398641a9	0.00025607392
6	0x3975aac3	0.00023428634
7	0x333346b8	4.1741004e-08
8	0x38a43d8e	7.831595e-05
9	0x38c93164	9.5936266e-05
10	0x39725b10	0.00023112842
11	0x393c8b41	0.00017980953
12	0x39ff7903	0.0004872755
13	0x399bda88	0.00029726722
14	0x389e36c8	7.544231e-05
15	0x34b1a6a8	3.3090078e-07
16	0x3949e263	0.0001925319
17	0x39426af6	0.00018541128
18	0x39524c5b	0.00020055605
19	0x39952be0	0.00028452184
20	0x3959afbd	0.000207602
21	0x397a6064	0.00023877766
22	0x39abe54a	0.00032786495
23	0x39849440	0.00025287457
24	0x3975116b	0.0002337151
25	0x39c7b311	0.00038089653
26	0x39c0120e	0.00036634546
27	0x394faf10	0.00019806274
28	0x398bd535	0.00026670998
29	0x3966bbcb	0.00022004468
30	0x396e43bd	0.00022722683
31	0x3850df6c	4.9799142e-05
32	0x39185ef5	0.00014531224
33	0x398f447a	0.00027326104
34	0x39aa6f19	0.000325077
35	0x3942ed8a	0.00018589772
36	0x3986587e	0.00025624403
37	0x397e0a9a	0.00024227277
38	0x3955c05b	0.00020384921
39	0x398851ce	0.0002600089
40	0x39b12700	0.00033789128
41	0x397f0b4c	0.00024322903
42	0x39c54837	0.00037628572
43	0x397c1ec7	0.00024044058
44	0x39f76620	0.000471876
45	0x394a8a7d	0.00019315812
46	0x30da821c	1.5898567e-09
47	0x396fc369	0.00022865612
48	0x39870f9a	0.0002576083
49	0x39894005	0.00026178375
50	0x391d45b0	0.00014998647
51	0x39d61b6a	0.00040837686
52	0x39bd18ea	0.00036067452
53	0x3883650a	6.265387e-05
54	0x397d5f05	0.00024163358
55	0x386636b0	5.4887205e-05
56	0x378bc9b9	1.6664026e-05
57	0x3955c643	0.00020387121
58	0x39d40fd2	0.00040447578
59	0x3862a5bb	5.4036947e-05
60	0x397178a4	0.00023028493
61	0x3984ac91	0.00025305574
62	0x39861770	0.00025575934
63	0x39a2a384	0.00031020876

message_passing.attn.query.weight f4 [64, 64]
0	0x396f834f	0.00022841732
1	0xba3265bc	-0.0006805321
2	0xb8328134	-4.2558837e-05
3	0x3907c571	0.00012948156
4	0x38457eb2	4.7086454e-05
5	0x3725452f	9.850874e-06
6	0x384c5d38	4.8724207e-05
7	0xb8236674	-3.8957645e-05
8	0x38c1d443	9.242494e-05
9	0xb7b2c762	-2.1312098e-05
10	0x3822f396	3.8850667e-05
11	0x390d77a3	0.00013491376
12	0x39724eef	0.00023108324
13	0x388487a5	6.319516e-05
14	0x38ec9920	0.00011281879
15	0x38e343db	0.000108368426
16	0xba05b57c	-0.00051005906
17	0x392d1177	0.00016505072
18	0x395a96e6	0.00020846314
19	0x394f0d61	0.00019746042
20	0x39377531	0.00017495897
21	0x393021fa	0.00016797325
22	0xb957316d	-0.0002052241
23	0x38d73783	0.00010262339
24	0x3939a74f	0.00017705302
25	0x396e1807	0.000227064
26	0x39c42fb5	0.00037419578
27	0x3913a869	0.0001408175
28	0xb87bb591	-6.001216e-05
29	0xb862b2b2	-5.4049022e-05
30	0x3822aaad	3.8782764e-05
31	0x393e4e29	0.00018148929
32	0x393bf6bf	0.0001792563
33	0x38a792e9	7.990545e-05
34	0xb99419b8	-0.00028247922
35	0x38c94846	9.597889e-05
36	0xb99980cd	-0.00029278398
37	0xb9e00194	-0.00042725785
38	0x37c7ff81	2.3841627e-05
39	0x38c06bc3	9.1753456e-05
40	0xb926c2ca	-0.00015903558
41	0xb9395658	-0.0001767514
42	0x3a29eead	0.0006482404
43	0xb99bccae	-0.00029716402
44	0xb988d727	-0.00026100242
45	0x38675519	5.5153945e-05
46	0xb797b01f	-1.8082615e-05
47	0x38a1caf3	7.7148805e-05
48	0x37cf0adc	2.468138e-05
49	0x395daf92	0.00021141607
50	0x3853698a	5.040461e-05
51	0x39878987	0.00025851672
52	0xb9a97117	-0.0003231845
53	0xb8210d0d	-3.8397546e-05
54	0x3851e8ec	5.004641e-05
55	0xb9292bf8	-0.00016133476
56	0x38e2484e	0.000107899876
57	0xb933ff2c	-0.00017165829
58	0x39fc43ba	0.00048115646
59	0xb9a5eb32	-0.00031646487
60	0xb914061a	-0.00014116653
61	0x3759084d	1.2936141e-05
62	0xb863e31b	-5.4332526e-05
63	0xb6c0f450	-5.7504876e-06
64	0x395859bc	0.00020632794
65	0xba416928	-0.0007378035
66	0x36d3bc2d	6.3101966e-06
67	0x38f48bd6	0.00011660873
68	0x38698a74	5.5680473e-05
69	0x36c42d5b	5.8465353e-06
70	0x38764a50	5.872018e-05
71	0xb833545f	-4.2755502e-05
72	0x3861f3ec	5.387135e-05
73	0xb730b29c	-1.0532003e-05
74	0x3865c544	5.4781573e-05
75	0x390f76d6	0.00013681813
76	0x3968e75b	0.00022211431
77	0x38a20b6b	7.726889e-05
78	0x38d81f56	0.000103055194
79	0x38ddbf8b	0.00010573779
80	0xba055707	-0.00050865154
81	0x394e7f77	0.00019693175
82	0x39571155	0.00020510454
83	0x392d8ae7	0.00016550311
84	0x3925b8e8	0.00015804509
85	0x393f5d90	0.00018250034
86	0xb931014e	-0.00016880521
87	0x3912e092	0.00014007304
88	0x3936b344	0.00017423654
89	0x39787dea	0.0002369803
90	0x39da8a71	0.00041683347
91	0x38f9115a	0.00011876477
92	0xb80c448a	-3.3442433e-05
93	0xb8926809	-6.9812006e-05
94	0x3894651d	7.076024e-05
95	0x393c1498	0.00017936749
96	0x39286160	0.00016058004
97	0x385b2ba6	5.225432e-05
98	0xb9a06f6e	-0.000306006
99	0x389053b3	6.882045e-05
100	0xb980e0ee	-0.00024581648
101	0xb9efa1b8	-0.00045706122
102	0x38879d3d	6.4665895e-05
103	0x38564d39	5.1093495e-05
104	0xb8fbf4d4	-0.000120142155
105	0xb93ca80b	-0.00017991678
106	0x3a307e09	0.0006732648
107	0xb9909e79	-0.00027583892
108	0xb9887a72	-0.0002603117
109	0x38008d7d	3.064935e-05
110	0xb7ca8fae	-2.4147183e-05
111	0x38bfda43	9.148244e-05
112	0xb6eaabb1	-6.993731e-06
113	0x390961d7	0.00013101786
114	0x38b55059	8.6457185e-05
115	0x3982813a	0.00024891814
116	0xb9a60130	-0.00031662872
117	0xb6aaa3c1	-5.0854583e-06
118	0x381ed578	3.7868944e-05
119	0xb92ce519	-0.00016488544
120	0x38e819c8	0.00011067424
121	0xb93eaa61	-0.00018183283
122	0x39cb5aa5	0.00038786713
123	0xb9a33b80	-0.00031134114
124	0xb925951d	-0.00015791175
125	0x37da0bc9	2.5993113e-05
126	0xb81ee9b6	-3.7887796e-05
127	0x37898dec	1.639776e-05
128	0x389d85ef	7.5112905e-05
129	0xb9eed5a6	-0.00045554078
130	0x3931cbdd	0.0001695598
131	0xb9185373	-0.00014526937
132	0x386c2c4c	5.630804e-05
133	0xb85f6495	-5.3261017e-05
134	0x38f2b115	0.00011572443
135	0xb8f2da0b	-0.00011580073
136	0xb87ecd2e	-6.0749408e-05
137	0x376044f9	1.3367499e-05
138	0x394e6d11	0.00019686321
139	0x38ee2f7c	0.00011357569
140	0x393db16e	0.00018090542
141	0x389fa56a	7.6125216e-05
142	0xb8919ae9	-6.942993e-05
143	0xb8c37565	-9.320191e-05
144	0xb889518b	-6.5478576e-05
145	0x38880e2a	6.4876236e-05
146	0x394f6623	0.00019779107
147	0xb7814cc7	-1.541375e-05
148	0xb87c9c1b	-6.0226866e-05
149	0x38d54bb8	0.00010170735
150	0x36e2fd8d	6.764842e-06
151	0x39951774	0.0002843697
152	0x391cbea4	0.00014948339
153	0x396f6619	0.0002283085
154	0x39dcb5f7	0.00042097244
155	0xb90af6cb	-0.00013252643
156	0x38b42f02	8.591825e-05
157	0xb696277c	-4.474945e-06
158	0x384d1a60	4.8900372e-05
159	0x388fee7e	6.863194e-05
160	0xb77f5306	-1.5218515e-05
161	0xb8e4aeb7	-0.000109044304
162	0xb9b211eb	-0.00033964156
163	0xb7d8f99a	-2.5865436e-05
164	0x3840731c	4.588357e-05
165	0xb908f1e8	-0.00013060088
166	0x370a96e2	8.260571e-06
167	0xb96a01c9	-0.00022316644
168	0x3910c1aa	0.00013805056
169	0xb8db0ed6	-0.00010445497
170	0x39d80bbd	0.00041207476
171	0xb94735a4	-0.00018998102
172	0xb935df9f	-0.0001734481
173	0xb8f9301e	-0.00011882208
174	0x3691388c	4.3279197e-06
175	0xb6f8b0ce	-7.4115587e-06
176	0xb907c021	-0.00012946177
177	0xb940961e	-0.0001836647
178	0x391bb295	0.00014848479
179	0x396d22ec	0.0002261509
180	0xb937a595	-0.00017513924
181	0x394f68c1	0.00019780082
182	0xb84c09d3	-4.864654e-05
183	0x38017102	3.0861243e-05
184	0xb7fc67b7	-3.0089037e-05
185	0xb849a80a	-4.8078633e-05
186	0xb7ca3969	-2.410701e-05
187	0xb8072105	-3.221726e-05
188	0xb85d14fa	-5.2710042e-05
189	0xb89545ea	-7.117896e-05
190	0x387f8395	6.0919283e-05
191	0xb8548a1b	-5.067336e-05
192	0x39859079	0.00025475377
193	0x38ac7644	8.223628e-05
194	0xb996a3ce	-0.00028732273
195	0x38cd783e	9.7975586e-05
196	0x38a8c9bd	8.048441e-05
197	0xb8755c19	-5.8498325e-05
198	0xb8d57c68	-0.00010179804
199	0xb80fdbdf	-3.4298628e-05
200	0x3993eae8	0.00028213044
201	0xb8980683	-7.249138e-05
202	0x36e40cdb	6.796426e-06
203	0x38c15cc6	9.2202376e-05
204	0x396abcbe	0.00022386291
205	0xb8ede904	-0.00011344443
206	0x3905661c	0.00012721907
207	0x38913b3b	6.925171e-05
208	0xb98235a1	-0.0002483549
209	0xb90dfcb8	-0.00013540953
210	0x397c23f2	0.00024045983
211	0x395de52c	0.00021161576
212	0x3907e6d5	0.00012960595
213	0xb8b34c56	-8.549604e-05
214	0xb9c42e40	-0.00037418492
215	0xb81ddfbc	-3.7640086e-05
216	0x390acc8b	0.00013236904
217	0x3936e6f0	0.00017442903
218	0xb877f0a2	-5.9113496e-05
219	0x38aa3473	8.116001e-05
220	0xb8c9bb7e	-9.61935e-05
221	0x38d90693	0.00010348591
222	0xb93e3a8e	-0.00018141625
223	0x38e1d5f1	0.00010768686
224	0x39440355	0.00018693258
225	0x392e5a8e	0.00016627667
226	0xb9422370	-0.00018514483
227	0x39328894	0.00017026282
228	0xb9dc255a	-0.000419895
229	0x383ffdba	4.577425e-05
230	0xb9b5f990	-0.0003470895
231	0x38e1a6c3	0.00010759898
232	0xb8ead33c	-0.00011197335
233	0xb843fed5	-4.6728954e-05
234	0x3922bce4	0.00015519891
235	0xb9aad2e5	-0.00032582055
236	0xb8f7492c	-0.00011791507
237	0x396292e5	0.00021607762
238	0x379dc627	1.880813e-05
239	0xb91b637a	-0.0001481901
240	0x3916da27	0.00014386383
241	0x39e62bf6	0.00043901772
242	0xb8ce9935	-9.8513825e-05
243	0x39aea5ef	0.00033311496
244	0xb940ac41	-0.00018374716
245	0xb94d5dc9	-0.00019585261
246	0x38de1ab4	0.00010590759
247	0x3814d46d	3.5483787e-05
248	0x37e68ccd	2.7483702e-05
249	0x385ca01e	5.2601208e-05
250	0x3a2fc489	0.0006705006
251	0xb95b2171	-0.00020897925
252	0x38308595	4.2086078e-05
253	0xb97631d8	-0.00023478956
254	0xb97d5a49	-0.00024161594
255	0xb99e9fec	-0.0003025526
